assets/modelo_gestos.tflite (tflite, 35208 bytes, 6 tensors)

arith.constant f4 [21, 64]
0	0xbea60a94	-0.32429945
1	0xbd4fc630	-0.050726116
2	0xbe1fe843	-0.15615945
3	0x3d5d2bd3	0.053996872
4	0xbe565f10	-0.20934701
5	0xbe4fcc73	-0.20292835
6	0x3d2f64ea	0.04282085
7	0x3dd38a45	0.10329107
8	0x3da04135	0.07824937
9	0x3e5f2d2d	0.21794577
10	0x3e140f57	0.14458977
11	0x3e69c424	0.22828728
12	0xbf4a42c6	-0.7900814
13	0xbc7593b3	-0.0149888275
14	0xbe42c52f	-0.19020532
15	0x3f1d9c2f	0.6156644
16	0xbf2c80dd	-0.6738413
17	0xbfa34059	-1.2754012
18	0x3f09c195	0.5381101
19	0xbe2715a0	-0.16316843
20	0x3e8e5c59	0.2780483
21	0x3f0d548e	0.55207145
22	0xbe08b534	-0.13350374
23	0xbdb7fd2f	-0.08983838
24	0xbe972e81	-0.29527667
25	0x3e21a8a8	0.15786994
26	0xbf3c02b4	-0.73441625
27	0xbec9ce9c	-0.39415443
28	0xbde90681	-0.11378194
29	0x3e1f95e9	0.1558453
30	0xbef70265	-0.48244014
31	0x3e1cd01c	0.15313762
32	0x3e60898c	0.2192747
33	0xbe82df81	-0.25561145
34	0xbee4d08b	-0.44690356
35	0x3e7985fc	0.24367517
36	0x3de21c23	0.11040523
37	0xbc2c74a0	-0.010525852
38	0x3ef3c1fc	0.47608936
39	0x3e9c2a33	0.30500945
40	0xbd99ae1b	-0.07503911
41	0x3e310d74	0.17290288
42	0x3f77f0cc	0.968518
43	0xbe1976cb	-0.14986722
44	0xbfced925	-1.6160017
45	0x3eb47c8f	0.3525128
46	0xbce417f2	-0.02784345
47	0xc0511353	-3.2668045
48	0xbeaae0da	-0.33374673
49	0x3f2226e0	0.6334057
50	0xbfb1499d	-1.385059
51	0x3ece232d	0.40261212
52	0xbe0dd025	-0.13848932
53	0xbf1616e9	-0.5862871
54	0xbf33aa56	-0.70181787
55	0x3e2a8e30	0.16655803
56	0x3ed35c30	0.4128127
57	0xc00e4db1	-2.223492
58	0xc045c184	-3.0899363
59	0xbc579aa0	-0.013159424
60	0xbf33c69d	-0.70224935
61	0x3dba0018	0.09082049
62	0xbe871569	-0.26383522
63	0xbde5dcf4	-0.11223784
64	0x3eb3bc41	0.35104564
65	0xbd784ecc	-0.06062202
66	0xbdf6931a	-0.12039776
67	0xbc8e1e13	-0.017348325
68	0x3ca16944	0.019703515
69	0xbc97e51f	-0.01854187
70	0xbe7ad1b3	-0.24494056
71	0x3cabfb29	0.020993786
72	0x3dddeacf	0.10835802
73	0xbdf7534e	-0.12076436
74	0xbe2fa05a	-0.17151013
75	0xbed01fad	-0.40649167
76	0x3ed368f4	0.4129101
77	0x3e44b693	0.19210272
78	0xbe15654c	-0.14589423
79	0xbfa50003	-1.2890629
80	0x3e6ebd88	0.23314488
81	0x3e7aabd9	0.24479617
82	0x3b782c3c	0.0037868163
83	0x3e1ee5ed	0.15517397
84	0xbf6e0f99	-0.9299255
85	0xbf911096	-1.1333187
86	0xbfb34330	-1.4004879
87	0x3eec527a	0.46156675
88	0x3e2e345e	0.17012164
89	0x3e7d832e	0.24757072
90	0x3e374ed2	0.17901161
91	0x3f19253e	0.5982245
92	0xbd9a49cc	-0.07533607
93	0x3e9f2f39	0.31090716
94	0x3f1ed3e1	0.6204205
95	0xc09ccee3	-4.9002547
96	0xbe4d76b7	-0.20064817
97	0x3e7e5575	0.24837287
98	0x3f2fd26f	0.6868047
99	0x3e80e9b0	0.2517829
100	0xc07f2865	-3.9868405
101	0xbcc9a018	-0.024612471
102	0xc0076c31	-2.1159785
103	0x3db14d08	0.08657271
104	0xbe9fe519	-0.31229475
105	0xbe3fde37	-0.18737112
106	0x3e173c9a	0.14769211
107	0xbe3e9bfc	-0.18614191
108	0x3ed685a1	0.41898826
109	0xc007e7f7	-2.123533
110	0xbb1470ad	-0.0022650168
111	0xbe1ef885	-0.1552449
112	0xc088ccef	-4.2750163
113	0xbf0695bd	-0.5257223
114	0x3f27bf14	0.6552594
115	0x3e874159	0.26417044
116	0xc08df618	-4.4362907
117	0x3d26a196	0.040681444
118	0x3f2fc7ca	0.6866423
119	0xbe415844	-0.18881327
120	0xbf5f1d63	-0.87154216
121	0x3f0ca0e0	0.54932976
122	0x3f0e3625	0.5555137
123	0x3e224598	0.1584686
124	0x3e83d849	0.2575095
125	0x3da0c5be	0.07850216
126	0xbe084c53	-0.13310365
127	0x3e50528e	0.20343992
128	0x3ee4edd7	0.44712707
129	0xbd8619fc	-0.06547925
130	0xbdc03e71	-0.0938691
131	0xbf61a54e	-0.8814286
132	0xbd3caf3f	-0.046065565
133	0xbe2a5738	-0.16634834
134	0x3d9e7e3b	0.0773892
135	0x3e31bb83	0.17356686
136	0xbe4d3be1	-0.20042373
137	0x3e0b795f	0.13620518
138	0x3d64b959	0.055840824
139	0x3e6d66bf	0.23183726
140	0x3edc0186	0.42969912
141	0x3f228daf	0.6349744
142	0x3d0326cc	0.03201942
143	0xbecbeb84	-0.39828122
144	0x3e417d70	0.18895507
145	0x3f058ec5	0.52170974
146	0xbdc45a58	-0.09587544
147	0x3f256a30	0.64615154
148	0xc013d16b	-2.3096569
149	0xbf3f9a3b	-0.7484471
150	0xc006d718	-2.1068783
151	0x3f00ea5b	0.503576
152	0x3ec79219	0.3897865
153	0xbd3245b0	-0.04352349
154	0xbffdabfd	-1.9818112
155	0x3f17989f	0.59217256
156	0xbca99146	-0.020699155
157	0x3f0b7607	0.5447697
158	0x3ea1b5c8	0.31584
159	0xc03326f6	-2.799253
160	0x3e488cf4	0.1958502
161	0x3e10271e	0.14077422
162	0x3e689aeb	0.22715347
163	0x3e57b764	0.21066052
164	0xc00f3078	-2.2373333
165	0x3e64f3e1	0.22358657
166	0xbf555d1d	-0.83345205
167	0xbd547f23	-0.05187906
168	0xbfbf3d05	-1.4940497
169	0xbde76f9a	-0.11300583
170	0xbec6b701	-0.38811496
171	0x3e643ef7	0.22289644
172	0xbfd380dc	-1.65237
173	0xbf301f21	-0.687975
174	0xbdc5f0e7	-0.09665089
175	0x3da5c2e2	0.080938116
176	0xc083f585	-4.1237206
177	0xbee865f1	-0.45390275
178	0x3ebca15c	0.36841857
179	0x3e800840	0.25006294
180	0xbf1d8818	-0.6153579
181	0xbea87a97	-0.3290603
182	0xbcd587cb	-0.026065728
183	0xbe2d50ac	-0.16925305
184	0xbf0dee8b	-0.5544211
185	0x3f3f6faf	0.7477979
186	0x3f329b5c	0.6976831
187	0xbd4cb28c	-0.049974963
188	0x3e7cd143	0.24689202
189	0xbe85eda4	-0.26157868
190	0xbcd8bf1c	-0.026458316
191	0xbe01438a	-0.1262342
192	0xbdc54371	-0.09632004
193	0xbce1d710	-0.02756837
194	0x3eb497ad	0.3527197
195	0xbede3d02	-0.4340592
196	0xbe0aa9a3	-0.13541274
197	0x3e5d9e76	0.2164248
198	0x3e21e6e4	0.15810734
199	0xbd7d3a26	-0.061823033
200	0xbe5797c5	-0.21053989
201	0xbcdae45b	-0.026720216
202	0x3e247530	0.16060328
203	0x3f172d63	0.5905363
204	0x3db9be76	0.09069531
205	0xbde0c7c6	-0.10975604
206	0xbd91526e	-0.070958
207	0x3f4071fe	0.7517394
208	0xbf54bf5e	-0.83104503
209	0x3f13d7d8	0.57751226
210	0xbe3e716a	-0.18597952
211	0xbf00299c	-0.5006349
212	0xbeb3717b	-0.35047516
213	0xbefee924	-0.49787247
214	0xbee98bbe	-0.45614427
215	0x3e0c1bc0	0.13682461
216	0x3eadc308	0.3393786
217	0x3e6c52ca	0.23078457
218	0x3e828c17	0.25497505
219	0x3d891cb0	0.06694925
220	0xbe06ea64	-0.1317535
221	0xbf6f52be	-0.9348563
222	0xbe8d8f17	-0.2764823
223	0xbdf5f4fe	-0.12009619
224	0x3c8b2c70	0.016988963
225	0xbd5446e1	-0.051825408
226	0xbf033007	-0.5124516
227	0x3d81c4f3	0.06336393
228	0x3e46145e	0.19343707
229	0x3d9d1473	0.07669916
230	0xbf181125	-0.5940116
231	0xbed66525	-0.41874042
232	0x3e7423da	0.23841801
233	0x3e6ddeb2	0.23229483
234	0x3f12da05	0.5736392
235	0x3cc369af	0.023854105
236	0x3e52cc8c	0.20585841
237	0x3d2df336	0.042468272
238	0xbe50c323	-0.20386939
239	0xc05b8dc9	-3.4305289
240	0x3e802851	0.2503076
241	0xbd6174b2	-0.05504293
242	0xbdab8873	-0.08375635
243	0xbe95f29b	-0.29286656
244	0x3fcb0559	1.5861007
245	0xbfab97ef	-1.3405741
246	0x3c9ad018	0.018898055
247	0xbda2cbe6	-0.07949047
248	0xbee7cee9	-0.45275047
249	0x3f0f8872	0.56067574
250	0xbd3ed53b	-0.04659007
251	0xbdac75c0	-0.084208965
252	0xbe1bcb5b	-0.15214293
253	0xbc8c3d31	-0.017119022
254	0x3e0dfc16	0.13865694
255	0x3ccf9f60	0.02534455

arith.constant1 f4 [64, 64]
0	0x3fca4917	1.5803555
1	0x3f51c3c6	0.8193935
2	0x3d4d0cac	0.050060913
3	0xbe5e67b9	-0.21719255
4	0x3da807d9	0.08204622
5	0xbc178400	-0.00924778
6	0xbf4e95b9	-0.8069721
7	0xbf2de6fb	-0.67930573
8	0x3f279163	0.6545622
9	0x3ebf8a0a	0.37410003
10	0x3fba75f7	1.456725
11	0x3e450df0	0.19243598
12	0x3f15bbd7	0.58489746
13	0x3e379c1d	0.17930646
14	0x3d48cb54	0.049022034
15	0x3de6c88e	0.112687215
16	0x3ebd759e	0.37003797
17	0x3f88f24c	1.0698943
18	0x3e02527d	0.1272678
19	0x3dc3857a	0.09546943
20	0x3e9f1e9a	0.31078035
21	0x3e57d364	0.21076733
22	0x3f6cb926	0.92470014
23	0x3f9c3787	1.2204446
24	0x3c48ed20	0.012263566
25	0x3d1f70ec	0.03892605
26	0x3eeea218	0.46608043
27	0xbf988a44	-1.1917195
28	0x3ec747e4	0.38922036
29	0xbdf37499	-0.118874736
30	0x3e28285a	0.16421643
31	0x3f4835be	0.78207004
32	0x3dacf9fc	0.08446118
33	0x3e00f7ea	0.12594572
34	0xbd02522c	-0.031816646
35	0x3fa9b5d7	1.3258618
36	0x3ef44afe	0.47713464
37	0xbe016422	-0.12635854
38	0x3e123465	0.142778
39	0x3e0f41c1	0.13989927
40	0x3d91a6f1	0.0711192
41	0x3ecb879e	0.39751905
42	0x3bb03ce0	0.0053783506
43	0xbe71556b	-0.2356774
44	0x3e110563	0.14162211
45	0xbd13b819	-0.03606424
46	0x3deb2eb6	0.11483519
47	0xbf4498a2	-0.767954
48	0xbe3e89a0	-0.18607187
49	0xbf2349d1	-0.6378451
50	0x3d5de9d0	0.05417806
51	0x3f8540ad	1.0410362
52	0xbe28903f	-0.16461276
53	0xbf1c69e1	-0.6109906
54	0x3e74490d	0.23855992
55	0x3ee3b3dc	0.4447316
56	0xbf724fbf	-0.9465293
57	0xbebeb05d	-0.3724393
58	0x3d3c9a8d	0.04604583
59	0x3e1c9a5f	0.15293263
60	0x3d30a93d	0.04313015
61	0xbf17e203	-0.5932924
62	0x3e038773	0.12844639
63	0xbe27fe84	-0.16405684
64	0x3cb5c10f	0.022186784
65	0xbddc7352	-0.10764183
66	0x3d403154	0.046922043
67	0x3d6749f4	0.05646701
68	0xbdcb4701	-0.09925652
69	0x3dfe3d4e	0.12414037
70	0x3e10260c	0.14077014
71	0xbe64df56	-0.22350821
72	0x3d3720b9	0.04470894
73	0x3e16e818	0.14736974
74	0xbe07623d	-0.13221069
75	0xbcd69be2	-0.026197378
76	0xbda0e2d0	-0.07855761
77	0x3e295ed1	0.16540076
78	0xbe2b68f7	-0.1673926
79	0xbdfc5b69	-0.123221226
80	0xbe62a176	-0.22131905
81	0xbe54aee9	-0.20769848
82	0xbe0c2e86	-0.13689622
83	0xbdb57438	-0.088600576
84	0x3c5844cd	0.013199997
85	0xbe28183e	-0.16415498
86	0x3e21f002	0.15814212
87	0xbc9ec2ed	-0.019380057
88	0xbe246bad	-0.160567
89	0x3d8cd4a2	0.06876494
90	0x3c71b184	0.014751796
91	0x3d2443ee	0.040103845
92	0x3d6ed1ee	0.058305673
93	0x3e343c33	0.17601089
94	0xbdc3d5df	-0.09562277
95	0xbd5d816a	-0.054078497
96	0x3c9f33db	0.019433906
97	0xbe504285	-0.20337875
98	0xbe4103f9	-0.18849172
99	0xbe5b0df4	-0.21392041
100	0xbd1a9db7	-0.037748065
101	0xbbf491c0	-0.007463664
102	0xbdd42c73	-0.103600405
103	0x3e2d2464	0.16908413
104	0xbe33897c	-0.17532915
105	0x3dbb906f	0.09158408
106	0x3e18ba51	0.14914824
107	0xbdadbc29	-0.08483154
108	0x3e1fa197	0.15588985
109	0xbbaaffb8	-0.0052184723
110	0xbd9edf26	-0.07757406
111	0xbe53b31d	-0.20673795
112	0x3e0d4a7c	0.13797945
113	0x3d4c8472	0.049930997
114	0xbd1ff794	-0.03905447
115	0x3c8fdd7e	0.01756167
116	0x3e33fca3	0.17576842
117	0x3a7fb2eb	0.0009754139
118	0x3db39060	0.08767772
119	0x3d394d36	0.04523965
120	0x3dfd2a04	0.123615295
121	0xbe5d29e9	-0.21598019
122	0xbddf016b	-0.10888942
123	0x3c7f1330	0.0155685395
124	0xbe11382f	-0.14181589
125	0x3d91a8db	0.07112285
126	0xbe1b4e14	-0.15166503
127	0x3dacd8a6	0.0843976
128	0x3df8f47e	0.12156008
129	0x3e290c40	0.16508579
130	0x3ce94c08	0.028478637
131	0x3e228977	0.15872751
132	0x3e5a60ed	0.21326037
133	0x3c8468a8	0.016163185
134	0x3e724e77	0.23662744
135	0x3e5d48f5	0.21609862
136	0x3e4fcc35	0.20292743
137	0xbe5f3cee	-0.21800587
138	0xbf2c9ddf	-0.6742839
139	0xbd20f5a3	-0.039296757
140	0xbe9c42b9	-0.30519655
141	0xbda75630	-0.08170736
142	0xbd735e14	-0.05941589
143	0x3ab38f00	0.0013699234
144	0x3e1145e1	0.14186813
145	0xbf8c357e	-1.0953825
146	0xbd9787ee	-0.073989734
147	0x3cc191f8	0.023629174
148	0xbe392922	-0.18082097
149	0xbeb67918	-0.35639262
150	0xbe14f4a4	-0.14546448
151	0x3f238fcf	0.6389131
152	0xbe3483d8	-0.1762842
153	0x3dd528e2	0.104081884
154	0xbddfcebc	-0.10928103
155	0xbe349d1e	-0.1763806
156	0xbe706d42	-0.23479179
157	0x3de96bc6	0.11397509
158	0xbe96a025	-0.29419056
159	0x3e6dd3fd	0.23225398
160	0xbf2b1dc4	-0.66842294
161	0xbe08674f	-0.13320659
162	0xbcd25ef8	-0.02568005
163	0x3da5b36a	0.08090861
164	0x3ec1f021	0.37878516
165	0x3e425fa7	0.18981801
166	0x3df85afd	0.1212673
167	0xbcef2d89	-0.029196518
168	0x3da5a88e	0.0808879
169	0x3e8fdd28	0.28098416
170	0xbe0f0c5f	-0.13969563
171	0xbe2a13dd	-0.1660914
172	0xbdb1873a	-0.086683705
173	0x3e202ca1	0.15642025
174	0x3e4ca5c9	0.19985117
175	0x3d5c1b55	0.053737003
176	0x3dc2ea31	0.09517325
177	0x3e8ba094	0.2727095
178	0xbd9edc3a	-0.07756849
179	0xbe9556f6	-0.29167908
180	0x3d9a5ade	0.07536863
181	0x3ebda1d0	0.37037516
182	0xbe824622	-0.25444132
183	0xbd650c12	-0.055919714
184	0xbc47f51c	-0.012204435
185	0x3f1ddcda	0.6166512
186	0xbd668c37	-0.056286063
187	0x3dc137d2	0.09434475
188	0x3d736aec	0.05942814
189	0x3e30e2ad	0.1727397
190	0xbd0535c0	-0.032521963
191	0xbdb5f936	-0.08885424
192	0x3e3abef2	0.18236902
193	0x3e9c6ad2	0.30550247
194	0xbe1f5b7e	-0.15562245
195	0x3d4de5c4	0.05026795
196	0x3e20ab09	0.15690245
197	0x3e01bf45	0.1267062
198	0x3f4e031b	0.8047349
199	0x3ebd0f57	0.36925766
200	0x3e9e7464	0.30948174
201	0xbe991d24	-0.29905045
202	0xbec0bd87	-0.37644598
203	0xbe2b6e64	-0.1674133
204	0xbedc7148	-0.43055177
205	0x3e0e542b	0.13899295
206	0xbcf1d808	-0.029521957
207	0xbe3a660a	-0.18202987
208	0xbdfef2c6	-0.12448649
209	0xbe2ccfe5	-0.1687618
210	0xbe163971	-0.1467035
211	0xbd5274e8	-0.05138102
212	0xbe63ebb8	-0.22257888
213	0x3f203d2d	0.62593347
214	0x3e7f3704	0.2492333
215	0xbe856768	-0.26055455
216	0xbb133000	-0.002245903
217	0x3dad2c5a	0.08455725
218	0xbeefb63d	-0.46818724
219	0x3eb2d534	0.34928286
220	0xbe070e9d	-0.13189168
221	0x3d71c674	0.05902715
222	0x3c3765e0	0.0111937225
223	0x3e4a623a	0.19764033
224	0xbdf62cf5	-0.120202936
225	0x3da50ec2	0.080594555
226	0x3a2fc000	0.00067043304
227	0xbeed11c6	-0.46302623
228	0x3f4c0947	0.79701656
229	0xbd184bec	-0.03718178
230	0x3e872200	0.26393127
231	0x3e995cbb	0.2995356
232	0x3e2eac6d	0.17057963
233	0x3f27aa11	0.65493876
234	0xbe361e99	-0.1778511
235	0x3d40981a	0.047020055
236	0x3da047a2	0.07826163
237	0x3d80d182	0.062899604
238	0x3e09e7cf	0.13467334
239	0xbd1f1339	-0.03883669
240	0xbcf4fbac	-0.029905163
241	0xbd8fa44f	-0.07013761
242	0x3e4d4b41	0.20048238
243	0x3e17ab51	0.14811446
244	0x3d91e1aa	0.0712312
245	0xbe0e23a0	-0.13880777
246	0x3d5cc6ed	0.053900648
247	0xbf0174b3	-0.50568694
248	0x3d56d73a	0.05245135
249	0x3f4e8eb4	0.806865
250	0xbdd19ee0	-0.10235381
251	0x394e2c00	0.00019662082
252	0x3e1c2055	0.15246709
253	0x3de015b2	0.10941638
254	0xbc114930	-0.008867547
255	0xbd890446	-0.06690268

arith.constant2 f4 [21]
0	0x3ec8dde2	0.39231783
1	0x3d95d339	0.07315678
2	0x3e17da27	0.14829312
3	0x3cd6283b	0.02614223
4	0x3e4aaf28	0.1979338
5	0x3dda28b1	0.106522925
6	0xbd142ec2	-0.036177404
7	0xbde9ffc9	-0.1142574
8	0xbec22aaf	-0.3792319
9	0xbeb464f7	-0.3523328
10	0x3df8c3be	0.1214671
11	0xbe598734	-0.21242982
12	0x3e8086d9	0.2510288
13	0x3d2783d9	0.040897224
14	0xbeeb8c39	-0.4600542
15	0xbee95762	-0.4557448
16	0xbe5e2e30	-0.21697307
17	0x3f23c89a	0.6397797
18	0xbe82abf5	-0.25521818
19	0x3e3163cb	0.17323224
20	0x3cac9e03	0.02107144

sequential_1/dense_1_2/BiasAdd/ReadVariableOp f4 [64]
0	0x3eddacf8	0.43296027
1	0xbd0e8ba0	-0.034801126
2	0x3e15f392	0.14643696
3	0xbe0c1f10	-0.13683724
4	0xbd5df49e	-0.054188363
5	0xbd3490e2	-0.044083484
6	0xbd95a6e1	-0.0730722
7	0xbd3537bb	-0.0442426
8	0xbd5a9ac4	-0.053370252
9	0xbda3f82e	-0.08006321
10	0xbd42c68c	-0.04755263
11	0x3e899daf	0.26878116
12	0xbe66ac0c	-0.22526568
13	0x3f0e84ae	0.55671203
14	0xbc412a77	-0.01178991
15	0x3d2268d6	0.03965076
16	0x3de4f6aa	0.1117986
17	0x3ef938b7	0.48676082
18	0x3f0c8364	0.54887986
19	0xbeb80b74	-0.35946238
20	0x3e1ec391	0.1550429
21	0xbee00b07	-0.43758413
22	0x3ed459ac	0.41474664
23	0x3dd22a2e	0.102619514
24	0xbecacc69	-0.39609078
25	0xbd258725	-0.040412087
26	0x3e88fda4	0.26756012
27	0xbdce5d67	-0.10076409
28	0xbd94c3d9	-0.072639175
29	0xbe1ef671	-0.15523697
30	0xbd06ac55	-0.032879192
31	0x3dca426c	0.0987595
32	0xbc43f557	-0.011960349
33	0xbb674e27	-0.0035294385
34	0x3b1b6909	0.002371373
35	0xbd84f71b	-0.06492444
36	0x3e809825	0.25116077
37	0xbd6d5c6b	-0.057949465
38	0xbe4dd0f0	-0.20099235
39	0x3d9009a3	0.07033088
40	0xbe71af09	-0.23601927
41	0xbcd7fd8d	-0.02636602
42	0x3f05a29b	0.5220124
43	0xbd9bce18	-0.07607669
44	0x3e0ee0f5	0.13953002
45	0xbe5d1cf6	-0.21593079
46	0xbcc01fdc	-0.023452692
47	0x3d91fa67	0.071278386
48	0x3edfd049	0.43713596
49	0x3ef5a3e3	0.47976598
50	0xbd28d808	-0.04122165
51	0xbec3a40c	-0.38211095
52	0x3f2438ac	0.64148974
53	0x3e91c029	0.2846692
54	0xbd81c02a	-0.063354805
55	0x00000000	0.0
56	0x3f07767e	0.5291518
57	0x3ec200ab	0.37891135
58	0x3e3a462d	0.18190832
59	0xbce93ab4	-0.028470375
60	0x3e07c40b	0.13258378
61	0xbd0786ad	-0.03308742
62	0xbc8bd18d	-0.017067695
63	0xbc661d69	-0.014045098

sequential_1/dense_1/BiasAdd/ReadVariableOp f4 [64]
0	0xbe194d46	-0.14970884
1	0xbe9aaa20	-0.3020792
2	0x00000000	0.0
3	0xbb975304	-0.0046180505
4	0xbba5cf3b	-0.005060104
5	0x00000000	0.0
6	0x3e05124f	0.12995265
7	0x3e69e38c	0.22840708
8	0xbe51baca	-0.2048141
9	0xbbde5853	-0.0067854314
10	0xbe89ae4f	-0.268908
11	0xbe4571b6	-0.19281659
12	0xbed0c10b	-0.4077228
13	0x00000000	0.0
14	0x00000000	0.0
15	0x00000000	0.0
16	0x3e0d8c4f	0.13823055
17	0x3b5bcfac	0.003354053
18	0x00000000	0.0
19	0x00000000	0.0
20	0x3de8750a	0.113504484
21	0x3e47787d	0.19479556
22	0xbda4cd21	-0.08046938
23	0xbcd50d70	-0.026007384
24	0x00000000	0.0
25	0x00000000	0.0
26	0x3e5b5ae1	0.21421386
27	0x3d992435	0.07477609
28	0x3e61590e	0.22006628
29	0x00000000	0.0
30	0x3dfcae0b	0.123378836
31	0xbe60805c	-0.21923965
32	0xbe28fda5	-0.16503008
33	0xbe46e632	-0.1942375
34	0x00000000	0.0
35	0xbc423700	-0.011853933
36	0x3d8c8546	0.068613574
37	0x00000000	0.0
38	0xbe01e349	-0.12684359
39	0xbe753292	-0.23945072
40	0xbc25445b	-0.010087098
41	0xbeb44829	-0.35211304
42	0x00000000	0.0
43	0xbd02ebcd	-0.03196316
44	0x00000000	0.0
45	0x3ea7c8c0	0.32770348
46	0x00000000	0.0
47	0x3d96b5ee	0.07358919
48	0xbe30cf67	-0.17266618
49	0x3ddb857d	0.1071882
50	0xbbd8f48d	-0.0066209496
51	0xbe9fcd1b	-0.3121117
52	0x00000000	0.0
53	0x3eaa4f3e	0.33263582
54	0xbed6bd52	-0.41941315
55	0x3e87b9c9	0.2650893
56	0x3db581f2	0.08862676
57	0x3e4314f3	0.1905096
58	0x3e0422d5	0.12903912
59	0x00000000	0.0
60	0xbbc4615d	-0.005993052
61	0x3e0980a0	0.13427973
62	0x00000000	0.0
63	0xbcd35c2a	-0.025800783

sequential_1/dense_1/MatMul f4 [64, 42]
0	0x3e32283c	0.1739816
1	0xbe7265e9	-0.23671688
2	0xbdf4e657	-0.11957996
3	0xbec1c3b9	-0.37844637
4	0xbefe39d6	-0.496535
5	0x3e887d67	0.26658174
6	0x3f0cbbad	0.5497387
7	0x3f42f1d2	0.7615024
8	0x3f599bd7	0.8500342
9	0x3eb6aaef	0.35677287
10	0x3de042b1	0.109502204
11	0xbeb4849d	-0.35257426
12	0xbe3b0417	-0.18263279
13	0x3e54ecd7	0.20793472
14	0x3e880acf	0.26570746
15	0xbd1283c4	-0.035770193
16	0xbec3d557	-0.38248703
17	0xbe0c8c2a	-0.13725343
18	0xbd822a47	-0.0635572
19	0xbe0c820d	-0.13721485
20	0xbebe60eb	-0.37183318
21	0x3e68251b	0.22670405
22	0x3e0718d6	0.13193068
23	0x3edf937e	0.43667215
24	0x3f35b525	0.7097953
25	0x3f61d69c	0.8821809
26	0x3c26b2f8	0.010174505
27	0x3d139fd7	0.036041107
28	0x3ec6d01f	0.3883066
29	0x3f4f30b2	0.8093368
30	0x3d39dc04	0.04537584
31	0x3d0a8c27	0.033825066
32	0x3dcdc47f	0.10047244
33	0x3ecb8d38	0.3975618
34	0xbd5d9a09	-0.054101977
35	0xbe8566c3	-0.26054963
36	0xbf449a27	-0.7679772
37	0xbf20ddf9	-0.62838703
38	0xbd840c0c	-0.0644761
39	0xbe8553bc	-0.26040447
40	0xbf3ab557	-0.7293295
41	0xbf106a67	-0.5641236
42	0xbe17efc9	-0.14837565
43	0xbf078b99	-0.52947384
44	0xbf39d977	-0.7259745
45	0xbe944fe0	-0.2896719
46	0xbe4bd6ad	-0.19906111
47	0xbe1ea5f6	-0.15492997
48	0x3d8fdb25	0.070242204
49	0x3ef5da63	0.48018178
50	0x3f26bfc8	0.65136385
51	0xbe0eee02	-0.1395798
52	0x3d3ccb19	0.046092127
53	0x3e1f1805	0.15536506
54	0x3e4c7a16	0.19968447
55	0xbe717ddb	-0.23583166
56	0x3ecb2021	0.3967295
57	0x3e927232	0.2860275
58	0x3e601e39	0.21886529
59	0xbcaad330	-0.020852655
60	0x3ed0279d	0.40655223
61	0x3eb8fdc9	0.36131123
62	0x3e9bcc77	0.30429432
63	0x3ec13eda	0.37743264
64	0x3ec061cb	0.3757461
65	0x3e82febc	0.25584972
66	0x3f47ea87	0.78092235
67	0x3f5f74eb	0.8728778
68	0x3ca5afd8	0.02022545
69	0xbe140d06	-0.14458093
70	0x3e36b96d	0.17844172
71	0x3e89667b	0.26836
72	0x3de79fb3	0.11309757
73	0xbeafa332	-0.34304196
74	0x3d9ac93b	0.07557913
75	0xbe032452	-0.12806824
76	0x3ce9f1af	0.028557627
77	0xbe6195ca	-0.22029796
78	0xbf2b8238	-0.66995573
79	0xbf42c548	-0.7608228
80	0xbe3f4ac7	-0.18680869
81	0xbebfde82	-0.37474447
82	0xbe46e1d6	-0.19422087
83	0xbe8396d8	-0.25701022
84	0x3de6fe22	0.11278941
85	0x39caf800	0.00038713217
86	0x3e07a507	0.13246547
87	0x3e38e5bb	0.18056385
88	0x3e421e9b	0.18956988
89	0xbe19ab9b	-0.15006869
90	0xbdf366fc	-0.11884877
91	0xbe14efb6	-0.14544567
92	0x3d096144	0.033540025
93	0xbca31490	-0.019907266
94	0x3caf7818	0.02141957
95	0x3d985122	0.0743735
96	0x3e3f2759	0.18667354
97	0x3c95daa8	0.01829274
98	0x3c560870	0.013063535
99	0x3c2b7ca0	0.010466725
100	0xbe577368	-0.21040118
101	0xbc030240	-0.007996142
102	0xbe23a936	-0.15982518
103	0xbddad904	-0.10685924
104	0xbe3ed966	-0.18637618
105	0x3c6a8890	0.014314786
106	0xbcd38330	-0.025819391
107	0x3df382f6	0.11890213
108	0xbe320006	-0.17382821
109	0xbc4dc590	-0.01255931
110	0xbe188646	-0.14894971
111	0xbe5899e3	-0.21152453
112	0xbe05d999	-0.13071288
113	0x3de99a32	0.114063635
114	0xbde532e4	-0.11191347
115	0x3ccf6188	0.025315061
116	0xbe5ddd84	-0.21666533
117	0x3dbbaeba	0.09164186
118	0xbe2475dd	-0.16060586
119	0xbe15ccf1	-0.1462896
120	0xbd3a23bc	-0.045444235
121	0x3da9e31a	0.08295269
122	0x3c17a650	0.009255961
123	0x3da79d02	0.08184244
124	0x3e031e27	0.12804471
125	0xbd76e4b0	-0.060276687
126	0x3d67309a	0.056442834
127	0x3e57eef2	0.21087244
128	0xbcada2c0	-0.02119577
129	0x3dafa777	0.08576863
130	0xbe759b01	-0.2398491
131	0xbd344d0d	-0.044018794
132	0x3dff2204	0.1245766
133	0xbdc075be	-0.093974575
134	0xbe034293	-0.12818365
135	0x3e673901	0.22580339
136	0xbe02a535	-0.12758334
137	0xbde4d496	-0.1117336
138	0xbe043d41	-0.12913992
139	0xbcb71f47	-0.022353781
140	0xbe4a32dd	-0.19745965
141	0x3dbf963f	0.09354829
142	0xbe66f91d	-0.22555967
143	0x3c2ccae7	0.010546423
144	0xbe4c5408	-0.1995393
145	0xbe61df0f	-0.22057746
146	0xbe0c5d23	-0.13707404
147	0xbc456473	-0.012047875
148	0x3db08b78	0.086203516
149	0x3e672e09	0.22576155
150	0x3bafe38e	0.005367703
151	0xbe4fbff1	-0.20288064
152	0xba241e60	-0.000626063
153	0xbe30ee58	-0.17278421
154	0x3e2c1832	0.16806105
155	0xbd8d2040	-0.06890917
156	0x3e3ae9ed	0.18253298
157	0x3c20ee96	0.009822508
158	0x3dd81bd6	0.10552184
159	0x3e063df9	0.13109578
160	0x3dbbf551	0.0917765
161	0xbdfcca55	-0.12343279
162	0xbe38ff93	-0.18066244
163	0xbd8abe28	-0.06774551
164	0xbcc3a565	-0.023882577
165	0xbe3439f1	-0.17600228
166	0xbe6f9fad	-0.23400755
167	0x3dcee20e	0.1010171
168	0xbd876a97	-0.06612127
169	0xbdc5cd9c	-0.096583575
170	0x3dbde4b6	0.09272139
171	0xbc450bd5	-0.012026747
172	0xbe46aa4d	-0.19400902
173	0xbe1bba7f	-0.15207861
174	0xbd247143	-0.040147077
175	0xbbd4c1b3	-0.0064928173
176	0x3e519aa4	0.20469147
177	0x3e4be96d	0.19913264
178	0xbbcfb276	-0.006338413
179	0xbe71e5de	-0.23622844
180	0x3e0a1e23	0.13488059
181	0x3e324e64	0.17412716
182	0x3e118f13	0.14214735
183	0x3dd34645	0.10316137
184	0x3e50b2f9	0.20380773
185	0x3e00be0f	0.12572502
186	0xbd15741a	-0.036487676
187	0xbd805348	-0.06265885
188	0xbc0a3c4e	-0.008437229
189	0xbdf3e54a	-0.11908968
190	0x3da09ddf	0.078426115
191	0xbe76a096	-0.24084696
192	0xbe72c3c4	-0.23707491
193	0xbe38eb21	-0.18058445
194	0xbe785ceb	-0.24254195
195	0xbda3bb81	-0.07994748
196	0xbe56379d	-0.20919652
197	0x3c1a8c35	0.009432842
198	0xbc4819bf	-0.01221317
199	0x3da55d73	0.08074465
200	0x3e33661e	0.17519423
201	0xbe16aa6b	-0.14713447
202	0x3b72ee17	0.0037068182
203	0x3da7948b	0.08182629
204	0xbd81165f	-0.06303095
205	0x3e275e71	0.1634462
206	0x3d9610f4	0.07327452
207	0x3cbff06a	0.023430068
208	0xbe725278	-0.23664272
209	0x3dde5b5d	0.1085727
210	0xbdf0f5ec	-0.11765656
211	0xbc6fc4c0	-0.014634311
212	0xbd7d2c28	-0.06180969
213	0xbe2354ae	-0.15950271
214	0xbe2366ec	-0.1595723
215	0x3de5d7a6	0.11222772
216	0x3d499b04	0.0492201
217	0xbe6e4691	-0.23269106
218	0x3c09a290	0.008400574
219	0xbe34896e	-0.1763055
220	0xbc4f64c0	-0.012658298
221	0xbd6b0090	-0.057373583
222	0xbdb3775a	-0.08762999
223	0x3e458003	0.19287114
224	0xbe5c3532	-0.21504667
225	0x3e36aded	0.17839785
226	0xbcb60840	-0.02222073
227	0x3e0f5d8b	0.14000528
228	0xbe6e370f	-0.2326319
229	0xbdae7600	-0.085186005
230	0x3e2d2ba7	0.16911183
231	0xbe296e2a	-0.1654593
232	0xbe6b8810	-0.23001122
233	0xbe2a5cec	-0.1663701
234	0x3c46a0b0	0.012123272
235	0x3c159dc0	0.009131849
236	0xbe1b04bc	-0.15138525
237	0x3b923560	0.004461929
238	0xbe041e54	-0.12902194
239	0x3dc42746	0.09577803
240	0x3d78d99c	0.060754403
241	0xbe0e0b5c	-0.13871521
242	0x3e0ff0a1	0.14056636
243	0xbd6e66d8	-0.05820355
244	0x3d820c1a	0.063499644
245	0x3d28a26c	0.041170523
246	0xbbadba80	-0.0053017735
247	0x3e2c21b9	0.16809739
248	0xbdc8dc9c	-0.09807703
249	0xbe71347a	-0.23555174
250	0x3e5f079f	0.21780251
251	0x3de3cc52	0.111229554
252	0xbe9e6fa8	-0.30944562
253	0xbe199d1b	-0.15001337
254	0xbd97f96e	-0.07420622
255	0xbe4a2b9a	-0.19743195
